ChatBot/data.pth (torch, 5783 bytes, 6 tensors)

l1.weight f4 [8, 69]
0	0xbe397054	-0.18109256
1	0x3e1158db	0.14194052
2	0x3ebdc6bb	0.37065682
3	0xbdc64fb1	-0.09683169
4	0x3ef2b9ab	0.47407278
5	0x3e277270	0.16352248
6	0x3e9333b9	0.287504
7	0xbe994469	-0.29935005
8	0xbdd7efb2	-0.10543765
9	0xbb817a44	-0.003951343
10	0xbbc58422	-0.0060277143
11	0xbd7e032f	-0.062014755
12	0x3f3443ae	0.7041577
13	0xbd33af3a	-0.04386828
14	0xbe893f62	-0.2680617
15	0x3e28dbf0	0.1649015
16	0xbe32327c	-0.17402071
17	0x3eb224d8	0.34793735
18	0xbdf5ee92	-0.12008394
19	0x3c2b6c8c	0.010462891
20	0x3c7e748c	0.015530717
21	0x3e4dcf44	0.20098597
22	0x3dce0221	0.10059
23	0x3ea5d89f	0.3239183
24	0x3f3ccffb	0.73754853
25	0x3f03e644	0.5152323
26	0xbea1585a	-0.3151272
27	0x3f08c442	0.53424466
28	0x3eb79744	0.35857594
29	0x3f27bf32	0.65526116
30	0xbeb32aba	-0.34993535
31	0x3d1ecdcb	0.03877048
32	0x3e7a6b47	0.24454986
33	0x3e55274c	0.20815772
34	0x3dcc2770	0.099684596
35	0x3ee2639e	0.44216627
36	0x3e08ef6e	0.13372585
37	0xbe2affb0	-0.166991
38	0x3eb12fa1	0.3460665
39	0x3e58f11b	0.21185724
40	0xbdbd4e95	-0.09243504
41	0xbde769ac	-0.11299452
42	0xbece47f7	-0.4028928
43	0xbdb86663	-0.09003904
44	0x3ea29ea4	0.31761658
45	0x3ec8b48c	0.39200246
46	0xbb911db7	-0.004428591
47	0x3c91dc22	0.017805163
48	0xbe893b7f	-0.26803204
49	0xbd9beeb2	-0.07613887
50	0x3ecdaabf	0.4016933
51	0xbe7847ad	-0.24246092
52	0x3eea3e03	0.45750436
53	0x3ecb348e	0.39688534
54	0x3ebe7f6a	0.37206584
55	0x3e653072	0.22381762
56	0xbd2e7da5	-0.042600293
57	0x3e62b590	0.22139573
58	0xbedddc6c	-0.4333223
59	0xbe33b629	-0.17549957
60	0xbdd0c2af	-0.10193383
61	0x3f0fe024	0.56201386
62	0x3ec7069e	0.38872236
63	0x3e8dd81d	0.27703944
64	0x3e9123b6	0.28347558
65	0xbe0da443	-0.13832192
66	0x3e7229ba	0.2364873
67	0xbed39da3	-0.41331205
68	0x3d2a8931	0.041634742
69	0xbe3058f7	-0.17221437
70	0xbe4c00e8	-0.1992222
71	0xbe910ebb	-0.2833155
72	0x3de2e1ed	0.11078248
73	0x3e267a13	0.16257505
74	0x3e02a469	0.1275803
75	0x3ebcf05c	0.3690213
76	0xbea37971	-0.3192859
77	0x3e1bcf53	0.15215807
78	0xbdc33494	-0.09531513
79	0x3da76652	0.08173813
80	0x3e934de8	0.28770375
81	0xbf13ee19	-0.57785183
82	0x3da97ed5	0.082761444
83	0x3f762169	0.9614473
84	0xbd9bd0e4	-0.07608202
85	0x3ee69222	0.45033365
86	0x3efd411a	0.4946373
87	0xbe764fb5	-0.24053843
88	0x3ea6d243	0.32582292
89	0x3e1746b4	0.14773065
90	0xbe951d08	-0.29123712
91	0x3c7f5e4d	0.015586448
92	0x3ef7a406	0.48367327
93	0xbf202f86	-0.62572515
94	0x3f39c29d	0.7256258
95	0xbe864425	-0.26223865
96	0x3f25c370	0.6475134
97	0x3ecd7edf	0.40135857
98	0x3f3dd8b3	0.7415878
99	0xbd88f373	-0.06687059
100	0x3e5dfdab	0.21678798
101	0x3ed98917	0.42487404
102	0xbee2785a	-0.44232446
103	0x3ed35c5a	0.41281396
104	0xbd31a59e	-0.043370835
105	0x3d5adbcf	0.053432282
106	0x3de20030	0.11035192
107	0xbe479e2c	-0.19493932
108	0xbadab2f6	-0.0016685415
109	0x3e95999f	0.29218766
110	0x3def23fc	0.11676785
111	0x3f821a52	1.0164282
112	0x3d0bf661	0.034170512
113	0xbe18edef	-0.14934514
114	0xbd45c70e	-0.048285536
115	0x3f270030	0.6523466
116	0xbee55021	-0.44787696
117	0x3f45b810	0.7723398
118	0x3ea342e3	0.31886968
119	0x3e0c9bad	0.1373126
120	0x3e7534d9	0.23945941
121	0x3e30053f	0.17189501
122	0xbe41ba94	-0.1891883
123	0xbe94e3fb	-0.29080185
124	0x3e9adeac	0.3024801
125	0xbede3375	-0.43398634
126	0xbd4aba51	-0.04949409
127	0xbf44cb56	-0.76872766
128	0xbeaf454a	-0.3423255
129	0x3f130c62	0.5744077
130	0x3f22d5ba	0.6360737
131	0xbe777001	-0.2416382
132	0xbe9ae689	-0.3025401
133	0x3d899d24	0.06719425
134	0xbe103b76	-0.14085183
135	0x3debaaa4	0.115071565
136	0x3d0565b3	0.03256769
137	0xbe0a6df7	-0.13518511
138	0xbe72b258	-0.23700845
139	0x3dd7924e	0.10525952
140	0xbda9ce4d	-0.08291302
141	0x3ea79607	0.3273165
142	0x3e949179	0.29017237
143	0x3e350044	0.17675883
144	0x3ece6243	0.40309343
145	0xbed517b7	-0.41619655
146	0xbdd7982e	-0.10527073
147	0xbd4401c2	-0.04785324
148	0x3e5859b4	0.21127969
149	0x3edccf10	0.43126726
150	0x3f25f240	0.6482277
151	0x3ccb5076	0.02481864
152	0xbe92b2d1	-0.2865205
153	0x3e7d0045	0.24707134
154	0xbd1d79a5	-0.038446087
155	0x3eb70762	0.3574782
156	0xbe8935bd	-0.26798812
157	0x3e80462f	0.25053546
158	0x3ea314cb	0.318518
159	0xbe56563a	-0.2093133
160	0x3c1c81a8	0.009552397
161	0x3f013f04	0.5048678
162	0x3f28e51c	0.65974593
163	0x3f138260	0.5762081
164	0xbe903186	-0.28162783
165	0x3f24cd9b	0.6437623
166	0x3ede23b7	0.43386623
167	0x3f27fbbb	0.65618485
168	0x3d606c40	0.054790735
169	0x3eb1a600	0.3469696
170	0x3e5ef1ab	0.21771877
171	0xbec16500	-0.3777237
172	0x3f0966cb	0.53672475
173	0x3f0c4089	0.5478597
174	0x3d479cb8	0.048733443
175	0x3e88fec2	0.26756865
176	0xbe717523	-0.2357984
177	0xbe4c9a65	-0.19980772
178	0x3e34a517	0.17641102
179	0x3e05e72c	0.13076466
180	0xbe45ec68	-0.19328463
181	0x3ea70927	0.3262417
182	0x3edc754b	0.43058237
183	0x3ead1432	0.3380447
184	0xbce5d30b	-0.028054735
185	0xbeac21d4	-0.3361956
186	0x3e4e3fdd	0.2014155
187	0x3d1bcdd6	0.038038097
188	0x3ece6044	0.4030782
189	0x3e41ac5d	0.18913408
190	0x3e8c5b90	0.27413607
191	0x3eb5a64e	0.35478443
192	0xbeb2246a	-0.34793407
193	0x3ecb8ff7	0.39758274
194	0xbe9655c3	-0.29362306
195	0xbe07cb55	-0.13261159
196	0xbf4b015b	-0.79298943
197	0xbe8c7f22	-0.27440745
198	0x3e2a5f60	0.16637945
199	0x3f00f65a	0.503759
200	0x3e705b86	0.23472413
201	0x3eb463ed	0.35232487
202	0x3e810f04	0.2520677
203	0xbe9b1a9d	-0.30293742
204	0x3e7aad1f	0.24480103
205	0xbe945e2b	-0.28978094
206	0xb7e47434	-2.723383e-05
207	0x3e738636	0.23781666
208	0x3ee01313	0.43764552
209	0xbe3ee719	-0.18642844
210	0xb99dbb9f	-0.00030085162
211	0x3e357dfb	0.17723839
212	0x3e5827c7	0.21108924
213	0xbe84031c	-0.25783622
214	0x3ec7db9a	0.3903473
215	0x3ee8d761	0.4547682
216	0x3e8284ed	0.2549204
217	0x3e2bcee2	0.16778138
218	0x3e889163	0.2667342
219	0x3f23a361	0.6392117
220	0x3d7a2a31	0.061075393
221	0xbf38c2aa	-0.72172034
222	0x3e616786	0.22012147
223	0x3e66bbe1	0.22532608
224	0xbeb90af4	-0.3614117
225	0x3e88ce1e	0.26719755
226	0x3e0a5f2e	0.1351287
227	0x3e253459	0.1613325
228	0xbe4a9572	-0.19783571
229	0xbd764fa2	-0.060134538
230	0xbe9792a6	-0.2960407
231	0x3f0cb346	0.5496105
232	0xbf160661	-0.58603483
233	0x3ed5beea	0.41747218
234	0xbf0b07e3	-0.5430891
235	0xbe6bbf0b	-0.23022096
236	0xbf144804	-0.5792239
237	0x3ec16375	0.37771192
238	0x3d7ceae7	0.061747458
239	0x3e01d7ea	0.12680021
240	0xbea75157	-0.32679245
241	0x3ec277df	0.3798208
242	0x3e605084	0.21905714
243	0xbe0d5b2a	-0.13804308
244	0x3de2f012	0.11080946
245	0xbe12db74	-0.14341527
246	0x3ca4a157	0.020096464
247	0x3ee0d357	0.4391124
248	0x3bf05394	0.007334182
249	0x3e39d4f7	0.18147646
250	0x3dffc243	0.12488224
251	0x3ee5d71f	0.44890687
252	0x3d9641c0	0.073367596
253	0x3dcef2f7	0.101049356
254	0x3eea5ba4	0.4577304
255	0x3f4ac6f1	0.7920981

l1.bias f4 [8]
0	0x3f2bbe63	0.6708738
1	0x3f46da8d	0.7767723
2	0x3f4b018d	0.7929924
3	0x3f2bf8aa	0.67176306
4	0x3f24c901	0.6436921
5	0x3f110000	0.56640625
6	0x3ee815f7	0.45329258
7	0x3f350d7c	0.707237

l2.weight f4 [8, 8]
0	0x3f1f9a54	0.6234486
1	0xbf45f2c2	-0.77323544
2	0x3e91de04	0.28489697
3	0x3ef31988	0.47480416
4	0x3e1213a1	0.142653
5	0x3f1699c0	0.58828354
6	0x3f92da7a	1.1472924
7	0xbeb0c51f	-0.3452539
8	0x3eb0d892	0.3454023
9	0xbf964fbd	-1.1743084
10	0xbf837bae	-1.0272119
11	0x3f4130bb	0.7546498
12	0x3f7a37ca	0.9774138
13	0x3f8a9fb6	1.082999
14	0x3f1098e9	0.5648332
15	0x3f807424	1.0035443
16	0x3f0dece9	0.5543962
17	0xbec2efbf	-0.38073537
18	0x3f8ef899	1.1169616
19	0x3f2ca465	0.67438346
20	0x3db07a19	0.08617038
21	0x3f33d81b	0.70251626
22	0xbf1e9a73	-0.6195442
23	0x3e365b78	0.1780833
24	0xbda43ec4	-0.08019784
25	0x3ee7929b	0.4522904
26	0x3f095bf8	0.5365596
27	0x3fa4737b	1.2847742
28	0xbf196baf	-0.5992994
29	0x3f91605c	1.1357532
30	0x3f691522	0.9104787
31	0xbf92b597	-1.1461667
32	0x3fb996f4	1.4499192
33	0x3d905339	0.070471235
34	0x3f9b7ab4	1.2146821
35	0x3d138f4e	0.036025338
36	0x3f8beb5c	1.0931201
37	0xbf315b96	-0.69280374
38	0x3f08c8b6	0.5343126
39	0xbea8c14a	-0.32959968
40	0xbf1087ee	-0.5645741
41	0x3fa9569a	1.3229554
42	0x3eeb64a6	0.45975226
43	0x3eed5e31	0.46360925
44	0xbefc163e	-0.4923572
45	0xbf02f7c3	-0.51159304
46	0x3e4bcb8e	0.19901869
47	0x3ebb3417	0.3656318
48	0x3efd0855	0.4942042
49	0x3f5e78e4	0.86903214
50	0x3ea272ce	0.31728214
51	0xbf6ee2ac	-0.93314624
52	0x3ed09e7d	0.40745917
53	0xbf973574	-1.1813188
54	0x3f2fa988	0.6861806
55	0x3f569187	0.8381581
56	0x3f7ca61e	0.98690975
57	0x3e8eaed7	0.27867767
58	0x3f638cb6	0.8888658
59	0x3e85d52b	0.26139197
60	0x3f85122d	1.0396172
61	0x3f03a2e9	0.51420456
62	0xbf8ea7e8	-1.1144991
63	0x3ef7f7a1	0.48431113

l2.bias f4 [8]
0	0x3e09a558	0.1344198
1	0x3ee0787c	0.43841922
2	0x3e083924	0.13303047
3	0x3ef6fb5b	0.48238644
4	0x3d3c2fa3	0.045943867
5	0x3eabddf6	0.3356778
6	0x3f0209b9	0.50796086
7	0x3e9b5e6d	0.3034548

l3.weight f4 [9, 8]
0	0xbed97332	-0.424707
1	0xbf489fe7	-0.7836899
2	0xbf9ac102	-1.2090151
3	0xbf16b925	-0.5887626
4	0xbf6a7640	-0.91586685
5	0x3f3827f2	0.7193595
6	0x3f65aa9f	0.8971347
7	0xbddd12e1	-0.107946165
8	0x3e7f0965	0.24905927
9	0xbed23baf	-0.4106116
10	0x3f4b7ff7	0.79492134
11	0xbdb89f2d	-0.09014735
12	0x3ec14f6d	0.3775591
13	0xbfe07225	-1.7534834
14	0xbf4b9daa	-0.7953745
15	0x3f1d2838	0.61389494
16	0xbf0e6f34	-0.5563843
17	0xbf9304b8	-1.1485815
18	0x3d54ca9b	0.051951032
19	0xbf70f0f9	-0.94117695
20	0x3f38798d	0.7206047
21	0xbf3bad39	-0.7331119
22	0x3eee8cb9	0.46591738
23	0x3f354313	0.7080547
24	0x3f07991a	0.5296799
25	0x3ed1598e	0.40888637
26	0xbf51baff	-0.8192596
27	0xbf51e121	-0.81984144
28	0x3eff7a61	0.49898055
29	0xbf758f22	-0.9592153
30	0x3eaf7d6f	0.34275386
31	0xbe6e41f6	-0.2326735
32	0xbec2e966	-0.38068694
33	0xbf03780c	-0.5135505
34	0xbecba095	-0.39770952
35	0xbefed7cd	-0.49774018
36	0xbe990b7b	-0.2989157
37	0xbf6d319f	-0.9265384
38	0xbf13f329	-0.5779291
39	0xbf25da4c	-0.6478622
40	0x3f38c00a	0.7216803
41	0x3eabf650	0.3358636
42	0xbc1d486f	-0.009599789
43	0x3f555079	0.83325917
44	0xbf196c37	-0.5993075
45	0xbf6c2a99	-0.922525
46	0xbf1eea2b	-0.6207606
47	0xbfa1a2a4	-1.2627759
48	0xbf21744a	-0.6306807
49	0xbf49f5a2	-0.7889043
50	0xbe0cfd08	-0.13768399
51	0x3f42248e	0.7583703
52	0xbf50743a	-0.8142735
53	0x3ea4d231	0.32191613
54	0xbf277f5c	-0.6542871
55	0x3e7c0d9b	0.24614565
56	0x3ec7e5d9	0.39042547
57	0xbf6f1db2	-0.93404686
58	0xbe692c1e	-0.22770736
59	0x3ea3ecb5	0.3201653
60	0x3f154fd9	0.5832496
61	0x3de52a26	0.1118968
62	0x3e5e8157	0.21729027
63	0xbf952dd3	-1.165461
64	0xbd4082ab	-0.046999615
65	0x3f8f206e	1.1181772
66	0x3eb14dc0	0.3462963
67	0xbeda6eb5	-0.42662588
68	0xbfc62d90	-1.5482655
69	0xbf895f04	-1.0732121
70	0xbf0fb155	-0.5612996
71	0x3ea0a312	0.31374413

l3.bias f4 [9]
0	0x3ec6f1cb	0.38856348
1	0xbe94db4e	-0.29073566
2	0x3e4d43a8	0.2004534
3	0xbe9285a5	-0.28617588
4	0xbf0258c9	-0.50916725
5	0x3d4fa8f7	0.050698247
6	0x3cf4bfb0	0.02987656
7	0xbef5d250	-0.48012018
8	0x3e26a917	0.1627544
